Perform shuffle on the dataset
Namespace(U=1, batch_size=64, channel=64, data='data//bike_pick', device='cuda:7', dropout_rate=0.1, epochs=500, es_patience=100, head=8, input_dim=3, input_len=12, llm_layer=6, lrate=0.001, num_nodes=250, output_len=12, print_every=50, save='./logs/2024-10-08-15:35:26-', wdecay=0.0001)
Ranger optimizer loaded. 
Gradient Centralization usage = True
GC applied to both conv and fc layers
The number of parameters: 82894860
The number of trainable parameters: 3117324
GAttn(
  (start_conv): Conv2d(36, 256, kernel_size=(1, 1), stride=(1, 1))
  (Temb): TemporalEmbedding()
  (in_layer): Conv2d(768, 768, kernel_size=(1, 1), stride=(1, 1))
  (dropout): Dropout(p=0.1, inplace=False)
  (regression_layer): Conv2d(768, 12, kernel_size=(1, 1), stride=(1, 1))
  (gpt): PFA(
    (gpt2): PeftModel(
      (base_model): LoraModel(
        (model): GPT2Model(
          (wte): Embedding(50257, 768)
          (wpe): Embedding(1024, 768)
          (drop): Dropout(p=0.1, inplace=False)
          (h): ModuleList(
            (0-5): 6 x GPT2Block(
              (ln_1): LayerNorm((768,), eps=1e-05, elementwise_affine=True)
              (attn): GPT2Attention(
                (c_attn): lora.Linear(
                  (base_layer): Conv1D()
                  (lora_dropout): ModuleDict(
                    (default): Dropout(p=0.1, inplace=False)
                  )
                  (lora_A): ModuleDict(
                    (default): Linear(in_features=768, out_features=16, bias=False)
                  )
                  (lora_B): ModuleDict(
                    (default): Linear(in_features=16, out_features=2304, bias=False)
                  )
                  (lora_embedding_A): ParameterDict()
                  (lora_embedding_B): ParameterDict()
                  (lora_magnitude_vector): ModuleDict()
                )
                (c_proj): Conv1D()
                (attn_dropout): Dropout(p=0.1, inplace=False)
                (resid_dropout): Dropout(p=0.1, inplace=False)
              )
              (ln_2): LayerNorm((768,), eps=1e-05, elementwise_affine=True)
              (mlp): GPT2MLP(
                (c_fc): Conv1D()
                (c_proj): Conv1D()
                (act): NewGELUActivation()
                (dropout): Dropout(p=0.1, inplace=False)
              )
            )
          )
          (ln_f): LayerNorm((768,), eps=1e-05, elementwise_affine=True)
        )
      )
    )
    (dropout): Dropout(p=0.1, inplace=False)
  )
)
start training...
Epoch: 001, Training Time: 48.8660 secs
Epoch: 001, Inference Time: 7.7492 secs
-----------------------
Epoch: 001, Train Loss: 2.7394, Train RMSE: 4.4637, Train MAPE: 0.9089, Train WMAPE: 0.6832, 
Epoch: 001, Valid Loss: 2.8825, Valid RMSE: 4.9177, Valid MAPE: 0.7384, Valid WMAPE: 0.6285
…
